{"backend": "tensorflow", "class_name": "Sequential", "config": [{"class_name": "Dense", "config": {"dtype": "float32", "kernel_regularizer": null, "kernel_initializer": {"class_name": "VarianceScaling", "config": {"mode": "fan_avg", "scale": 1.0, "distribution": "uniform", "seed": null}}, "units": 32, "bias_regularizer": null, "activation": "linear", "kernel_constraint": {"class_name": "MaxNorm", "config": {"max_value": 30, "axis": 0}}, "activity_regularizer": null, "bias_constraint": null, "use_bias": true, "batch_input_shape": [null, 717], "bias_initializer": {"class_name": "Zeros", "config": {}}, "trainable": true, "name": "dense_65"}}, {"class_name": "BatchNormalization", "config": {"center": true, "momentum": 0.99, "gamma_initializer": {"class_name": "Ones", "config": {}}, "beta_initializer": {"class_name": "Zeros", "config": {}}, "beta_constraint": null, "moving_mean_initializer": {"class_name": "Zeros", "config": {}}, "moving_variance_initializer": {"class_name": "Ones", "config": {}}, "scale": true, "beta_regularizer": null, "trainable": true, "gamma_constraint": null, "name": "batch_normalization_49", "epsilon": 0.001, "axis": -1, "gamma_regularizer": null}}, {"class_name": "LeakyReLU", "config": {"name": "leaky_re_lu_49", "alpha": 0.30000001192092896, "trainable": true}}, {"class_name": "Dropout", "config": {"name": "dropout_33", "trainable": true, "rate": 0.5}}, {"class_name": "Dense", "config": {"kernel_regularizer": null, "kernel_initializer": {"class_name": "VarianceScaling", "config": {"mode": "fan_avg", "scale": 1.0, "distribution": "uniform", "seed": null}}, "units": 16, "bias_regularizer": null, "activation": "linear", "kernel_constraint": {"class_name": "MaxNorm", "config": {"max_value": 30, "axis": 0}}, "activity_regularizer": null, "bias_constraint": null, "use_bias": true, "bias_initializer": {"class_name": "Zeros", "config": {}}, "trainable": true, "name": "dense_66"}}, {"class_name": "BatchNormalization", "config": {"center": true, "momentum": 0.99, "gamma_initializer": {"class_name": "Ones", "config": {}}, "beta_initializer": {"class_name": "Zeros", "config": {}}, "beta_constraint": null, "moving_mean_initializer": {"class_name": "Zeros", "config": {}}, "moving_variance_initializer": {"class_name": "Ones", "config": {}}, "scale": true, "beta_regularizer": null, "trainable": true, "gamma_constraint": null, "name": "batch_normalization_50", "epsilon": 0.001, "axis": -1, "gamma_regularizer": null}}, {"class_name": "LeakyReLU", "config": {"name": "leaky_re_lu_50", "alpha": 0.30000001192092896, "trainable": true}}, {"class_name": "Dropout", "config": {"name": "dropout_34", "trainable": true, "rate": 0.5}}, {"class_name": "Dense", "config": {"kernel_regularizer": null, "kernel_initializer": {"class_name": "VarianceScaling", "config": {"mode": "fan_avg", "scale": 1.0, "distribution": "uniform", "seed": null}}, "units": 8, "bias_regularizer": null, "activation": "linear", "kernel_constraint": {"class_name": "MaxNorm", "config": {"max_value": 30, "axis": 0}}, "activity_regularizer": null, "bias_constraint": null, "use_bias": true, "bias_initializer": {"class_name": "Zeros", "config": {}}, "trainable": true, "name": "dense_67"}}, {"class_name": "BatchNormalization", "config": {"center": true, "momentum": 0.99, "gamma_initializer": {"class_name": "Ones", "config": {}}, "beta_initializer": {"class_name": "Zeros", "config": {}}, "beta_constraint": null, "moving_mean_initializer": {"class_name": "Zeros", "config": {}}, "moving_variance_initializer": {"class_name": "Ones", "config": {}}, "scale": true, "beta_regularizer": null, "trainable": true, "gamma_constraint": null, "name": "batch_normalization_51", "epsilon": 0.001, "axis": -1, "gamma_regularizer": null}}, {"class_name": "LeakyReLU", "config": {"name": "leaky_re_lu_51", "alpha": 0.30000001192092896, "trainable": true}}, {"class_name": "Dense", "config": {"kernel_regularizer": null, "kernel_initializer": {"class_name": "VarianceScaling", "config": {"mode": "fan_avg", "scale": 1.0, "distribution": "uniform", "seed": null}}, "units": 1, "bias_regularizer": null, "activation": "tanh", "kernel_constraint": null, "activity_regularizer": null, "bias_constraint": null, "use_bias": true, "bias_initializer": {"class_name": "Zeros", "config": {}}, "trainable": true, "name": "dense_68"}}], "keras_version": "2.0.4"}